…
      "Model: \"Generator\"\n",
      "__________________________________________________________________________________________________\n",
      "Layer (type)                    Output Shape         Param #     Connected to                     \n",
      "==================================================================================================\n",
      "input_3 (InputLayer)            [(None, 32, 128, 1)] 0                                            \n",
      "__________________________________________________________________________________________________\n",
      "conv2d_8 (Conv2D)               (None, 16, 64, 64)   1088        input_3[0][0]                    \n",
      "__________________________________________________________________________________________________\n",
      "leaky_re_lu_4 (LeakyReLU)       (None, 16, 64, 64)   0           conv2d_8[0][0]                   \n",
      "__________________________________________________________________________________________________\n",
      "conv2d_9 (Conv2D)               (None, 8, 32, 128)   131200      leaky_re_lu_4[0][0]              \n",
      "__________________________________________________________________________________________________\n",
      "leaky_re_lu_5 (LeakyReLU)       (None, 8, 32, 128)   0           conv2d_9[0][0]                   \n",
      "__________________________________________________________________________________________________\n",
      "batch_normalization_6 (BatchNor (None, 8, 32, 128)   512         leaky_re_lu_5[0][0]              \n",
      "__________________________________________________________________________________________________\n",
      "conv2d_10 (Conv2D)              (None, 4, 16, 256)   524544      batch_normalization_6[0][0]      \n",
      "__________________________________________________________________________________________________\n",
      "leaky_re_lu_6 (LeakyReLU)       (None, 4, 16, 256)   0           conv2d_10[0][0]                  \n",
      "__________________________________________________________________________________________________\n",
      "batch_normalization_7 (BatchNor (None, 4, 16, 256)   1024        leaky_re_lu_6[0][0]              \n",
      "__________________________________________________________________________________________________\n",
      "conv2d_11 (Conv2D)              (None, 2, 8, 512)    2097664     batch_normalization_7[0][0]      \n",
      "__________________________________________________________________________________________________\n",
      "leaky_re_lu_7 (LeakyReLU)       (None, 2, 8, 512)    0           conv2d_11[0][0]                  \n",
      "__________________________________________________________________________________________________\n",
      "batch_normalization_8 (BatchNor (None, 2, 8, 512)    2048        leaky_re_lu_7[0][0]              \n",
      "__________________________________________________________________________________________________\n",
      "input_4 (InputLayer)            [(None, 2, 8, 512)]  0                                            \n",
      "__________________________________________________________________________________________________\n",
      "concatenate_4 (Concatenate)     (None, 2, 8, 1024)   0           batch_normalization_8[0][0]      \n",
      "                                                                 input_4[0][0]                    \n",
      "__________________________________________________________________________________________________\n",
      "up_sampling2d_4 (UpSampling2D)  (None, 4, 16, 1024)  0           concatenate_4[0][0]              \n",
      "__________________________________________________________________________________________________\n",
      "conv2d_12 (Conv2D)              (None, 4, 16, 256)   4194560     up_sampling2d_4[0][0]            \n",
      "__________________________________________________________________________________________________\n",
      "batch_normalization_9 (BatchNor (None, 4, 16, 256)   1024        conv2d_12[0][0]                  \n",
      "__________________________________________________________________________________________________\n",
      "re_lu_3 (ReLU)                  (None, 4, 16, 256)   0           batch_normalization_9[0][0]      \n",
      "__________________________________________________________________________________________________\n",
      "concatenate_5 (Concatenate)     (None, 4, 16, 512)   0           re_lu_3[0][0]                    \n",
      "                                                                 batch_normalization_7[0][0]      \n",
      "__________________________________________________________________________________________________\n",
      "up_sampling2d_5 (UpSampling2D)  (None, 8, 32, 512)   0           concatenate_5[0][0]              \n",
      "__________________________________________________________________________________________________\n",
      "conv2d_13 (Conv2D)              (None, 8, 32, 128)   1048704     up_sampling2d_5[0][0]            \n",
      "__________________________________________________________________________________________________\n",
      "batch_normalization_10 (BatchNo (None, 8, 32, 128)   512         conv2d_13[0][0]                  \n",
      "__________________________________________________________________________________________________\n",
      "re_lu_4 (ReLU)                  (None, 8, 32, 128)   0           batch_normalization_10[0][0]     \n",
      "__________________________________________________________________________________________________\n",
      "concatenate_6 (Concatenate)     (None, 8, 32, 256)   0           re_lu_4[0][0]                    \n",
      "                                                                 batch_normalization_6[0][0]      \n",
      "__________________________________________________________________________________________________\n",
      "up_sampling2d_6 (UpSampling2D)  (None, 16, 64, 256)  0           concatenate_6[0][0]              \n",
      "__________________________________________________________________________________________________\n",
      "conv2d_14 (Conv2D)              (None, 16, 64, 64)   262208      up_sampling2d_6[0][0]            \n",
      "__________________________________________________________________________________________________\n",
      "batch_normalization_11 (BatchNo (None, 16, 64, 64)   256         conv2d_14[0][0]                  \n",
      "__________________________________________________________________________________________________\n",
      "re_lu_5 (ReLU)                  (None, 16, 64, 64)   0           batch_normalization_11[0][0]     \n",
      "__________________________________________________________________________________________________\n",
      "concatenate_7 (Concatenate)     (None, 16, 64, 128)  0           re_lu_5[0][0]                    \n",
      "                                                                 leaky_re_lu_4[0][0]              \n",
      "__________________________________________________________________________________________________\n",
      "up_sampling2d_7 (UpSampling2D)  (None, 32, 128, 128) 0           concatenate_7[0][0]              \n",
      "__________________________________________________________________________________________________\n",
      "conv2d_15 (Conv2D)              (None, 32, 128, 4)   8196        up_sampling2d_7[0][0]            \n",
      "==================================================================================================\n",
      "Total params: 8,273,540\n",
      "Trainable params: 8,270,852\n",
      "Non-trainable params: 2,688\n",
      "__________________________________________________________________________________________________\n"
     ]
    }
   ],
   "source": [
…
      "Layer (type)                    Output Shape         Param #     Connected to                     \n",
      "==================================================================================================\n",
      "input_5 (InputLayer)            [(None, 32, 128, 4)] 0                                            \n",
      "__________________________________________________________________________________________________\n",
      "input_6 (InputLayer)            [(None, 32, 128, 1)] 0                                            \n",
      "__________________________________________________________________________________________________\n",
      "concatenate_8 (Concatenate)     (None, 32, 128, 5)   0           input_5[0][0]                    \n",
      "                                                                 input_6[0][0]                    \n",
      "__________________________________________________________________________________________________\n",
      "conv2d_16 (Conv2D)              (None, 16, 64, 64)   5184        concatenate_8[0][0]              \n",
      "__________________________________________________________________________________________________\n",
      "leaky_re_lu_8 (LeakyReLU)       (None, 16, 64, 64)   0           conv2d_16[0][0]                  \n",
      "__________________________________________________________________________________________________\n",
      "conv2d_17 (Conv2D)              (None, 8, 32, 128)   131200      leaky_re_lu_8[0][0]              \n",
      "__________________________________________________________________________________________________\n",
      "leaky_re_lu_9 (LeakyReLU)       (None, 8, 32, 128)   0           conv2d_17[0][0]                  \n",
      "__________________________________________________________________________________________________\n",
      "conv2d_18 (Conv2D)              (None, 4, 16, 256)   524544      leaky_re_lu_9[0][0]              \n",
      "__________________________________________________________________________________________________\n",
      "leaky_re_lu_10 (LeakyReLU)      (None, 4, 16, 256)   0           conv2d_18[0][0]                  \n",
      "__________________________________________________________________________________________________\n",
      "conv2d_19 (Conv2D)              (None, 2, 8, 512)    2097664     leaky_re_lu_10[0][0]             \n",
      "__________________________________________________________________________________________________\n",
      "leaky_re_lu_11 (LeakyReLU)      (None, 2, 8, 512)    0           conv2d_19[0][0]                  \n",
      "__________________________________________________________________________________________________\n",
      "flatten (Flatten)               (None, 8192)         0           leaky_re_lu_11[0][0]             \n",
      "__________________________________________________________________________________________________\n",
      "dense (Dense)                   (None, 1)            8193        flatten[0][0]                    \n",
      "==================================================================================================\n",
      "Total params: 2,766,785\n",
      "Trainable params: 2,766,785\n",
      "Non-trainable params: 0\n",
      "__________________________________________________________________________________________________\n"
     ]
    }
   ],
   "source": [
…
